{"backend": "tensorflow", "config": {"layers": [{"class_name": "Dense", "config": {"bias_constraint": null, "trainable": true, "kernel_constraint": null, "bias_initializer": {"class_name": "Zeros", "config": {}}, "name": "dense_1", "activity_regularizer": null, "use_bias": true, "kernel_initializer": {"class_name": "VarianceScaling", "config": {"distribution": "normal", "seed": null, "mode": "fan_in", "scale": 2.0}}, "batch_input_shape": [null, 6], "units": 12, "kernel_regularizer": null, "dtype": "float32", "bias_regularizer": null, "activation": "relu"}}, {"class_name": "Dense", "config": {"bias_constraint": null, "trainable": true, "kernel_constraint": null, "bias_initializer": {"class_name": "Zeros", "config": {}}, "name": "dense_2", "activity_regularizer": null, "use_bias": true, "kernel_initializer": {"class_name": "VarianceScaling", "config": {"distribution": "normal", "seed": null, "mode": "fan_in", "scale": 2.0}}, "units": 24, "kernel_regularizer": null, "bias_regularizer": null, "activation": "relu"}}, {"class_name": "Dense", "config": {"bias_constraint": null, "trainable": true, "kernel_constraint": null, "bias_initializer": {"class_name": "Zeros", "config": {}}, "name": "dense_3", "activity_regularizer": null, "use_bias": true, "kernel_initializer": {"class_name": "VarianceScaling", "config": {"distribution": "normal", "seed": null, "mode": "fan_in", "scale": 2.0}}, "units": 12, "kernel_regularizer": null, "bias_regularizer": null, "activation": "relu"}}, {"class_name": "Dense", "config": {"bias_constraint": null, "trainable": true, "kernel_constraint": null, "bias_initializer": {"class_name": "Zeros", "config": {}}, "name": "dense_4", "activity_regularizer": null, "use_bias": true, "kernel_initializer": {"class_name": "VarianceScaling", "config": {"distribution": "uniform", "seed": null, "mode": "fan_avg", "scale": 1.0}}, "units": 36, "kernel_regularizer": null, "bias_regularizer": null, "activation": "linear"}}], "name": "sequential_1"}, "keras_version": "2.2.4", "class_name": "Sequential"}