{"keras_version": "2.2.4", "config": {"layers": [{"config": {"bias_constraint": null, "trainable": true, "activation": "relu", "bias_initializer": {"config": {}, "class_name": "Zeros"}, "name": "dense_1", "activity_regularizer": null, "kernel_regularizer": null, "kernel_initializer": {"config": {"distribution": "normal", "scale": 2.0, "mode": "fan_in", "seed": null}, "class_name": "VarianceScaling"}, "dtype": "float32", "batch_input_shape": [null, 6], "kernel_constraint": null, "units": 12, "bias_regularizer": null, "use_bias": true}, "class_name": "Dense"}, {"config": {"bias_constraint": null, "trainable": true, "activation": "relu", "bias_initializer": {"config": {}, "class_name": "Zeros"}, "activity_regularizer": null, "kernel_regularizer": null, "use_bias": true, "name": "dense_2", "kernel_constraint": null, "units": 24, "bias_regularizer": null, "kernel_initializer": {"config": {"distribution": "normal", "scale": 2.0, "mode": "fan_in", "seed": null}, "class_name": "VarianceScaling"}}, "class_name": "Dense"}, {"config": {"bias_constraint": null, "trainable": true, "activation": "relu", "bias_initializer": {"config": {}, "class_name": "Zeros"}, "activity_regularizer": null, "kernel_regularizer": null, "use_bias": true, "name": "dense_3", "kernel_constraint": null, "units": 12, "bias_regularizer": null, "kernel_initializer": {"config": {"distribution": "normal", "scale": 2.0, "mode": "fan_in", "seed": null}, "class_name": "VarianceScaling"}}, "class_name": "Dense"}, {"config": {"bias_constraint": null, "trainable": true, "activation": "linear", "bias_initializer": {"config": {}, "class_name": "Zeros"}, "activity_regularizer": null, "kernel_regularizer": null, "use_bias": true, "name": "dense_4", "kernel_constraint": null, "units": 36, "bias_regularizer": null, "kernel_initializer": {"config": {"distribution": "uniform", "scale": 1.0, "mode": "fan_avg", "seed": null}, "class_name": "VarianceScaling"}}, "class_name": "Dense"}], "name": "sequential_1"}, "backend": "tensorflow", "class_name": "Sequential"}